12/17 01:17:09 AM Namespace(auto_aug=False, batch_size=96, ckpt_dir='./checkpoints/', classes=10, cutout=False, cutout_length=16, data_root='./dataset/', dataset='cifar10', device=device(type='cuda'), epochs=600, exp_name='spos_c10_train_supernet', layers=20, learning_rate=0.025, momentum=0.9, num_choices=4, print_freq=100, resize=False, seed=0, val_interval=5, weight_decay=0.0003)
Files already downloaded and verified
Files already downloaded and verified
12/17 01:17:11 AM SinglePath_OneShot(
  (stem): Sequential(
    (0): Conv2d(3, 16, kernel_size=(3, 3), stride=(1, 1), padding=(1, 1), bias=False)
    (1): BatchNorm2d(16, eps=1e-05, momentum=0.1, affine=False, track_running_stats=True)
    (2): ReLU6(inplace=True)
  )
  (choice_block): ModuleList(
    (0): ModuleList(
      (0): Choice_Block(
        (cb_main): Sequential(
          (0): Conv2d(8, 32, kernel_size=(1, 1), stride=(1, 1), bias=False)
          (1): BatchNorm2d(32, eps=1e-05, momentum=0.1, affine=False, track_running_stats=True)
          (2): ReLU(inplace=True)
          (3): Conv2d(32, 32, kernel_size=(3, 3), stride=(1, 1), padding=(1, 1), groups=32, bias=False)
          (4): BatchNorm2d(32, eps=1e-05, momentum=0.1, affine=False, track_running_stats=True)
          (5): Conv2d(32, 56, kernel_size=(1, 1), stride=(1, 1), bias=False)
          (6): BatchNorm2d(56, eps=1e-05, momentum=0.1, affine=False, track_running_stats=True)
          (7): ReLU(inplace=True)
        )
      )
      (1): Choice_Block(
        (cb_main): Sequential(
          (0): Conv2d(8, 32, kernel_size=(1, 1), stride=(1, 1), bias=False)
          (1): BatchNorm2d(32, eps=1e-05, momentum=0.1, affine=False, track_running_stats=True)
          (2): ReLU(inplace=True)
          (3): Conv2d(32, 32, kernel_size=(5, 5), stride=(1, 1), padding=(2, 2), groups=32, bias=False)
          (4): BatchNorm2d(32, eps=1e-05, momentum=0.1, affine=False, track_running_stats=True)
          (5): Conv2d(32, 56, kernel_size=(1, 1), stride=(1, 1), bias=False)
          (6): BatchNorm2d(56, eps=1e-05, momentum=0.1, affine=False, track_running_stats=True)
          (7): ReLU(inplace=True)
        )
      )
      (2): Choice_Block(
        (cb_main): Sequential(
          (0): Conv2d(8, 32, kernel_size=(1, 1), stride=(1, 1), bias=False)
          (1): BatchNorm2d(32, eps=1e-05, momentum=0.1, affine=False, track_running_stats=True)
          (2): ReLU(inplace=True)
          (3): Conv2d(32, 32, kernel_size=(7, 7), stride=(1, 1), padding=(3, 3), groups=32, bias=False)
          (4): BatchNorm2d(32, eps=1e-05, momentum=0.1, affine=False, track_running_stats=True)
          (5): Conv2d(32, 56, kernel_size=(1, 1), stride=(1, 1), bias=False)
          (6): BatchNorm2d(56, eps=1e-05, momentum=0.1, affine=False, track_running_stats=True)
          (7): ReLU(inplace=True)
        )
      )
      (3): Choice_Block_x(
        (cb_main): Sequential(
          (0): Conv2d(8, 8, kernel_size=(3, 3), stride=(1, 1), padding=(1, 1), groups=8, bias=False)
          (1): BatchNorm2d(8, eps=1e-05, momentum=0.1, affine=False, track_running_stats=True)
          (2): Conv2d(8, 32, kernel_size=(1, 1), stride=(1, 1), bias=False)
          (3): BatchNorm2d(32, eps=1e-05, momentum=0.1, affine=False, track_running_stats=True)
          (4): ReLU(inplace=True)
          (5): Conv2d(32, 32, kernel_size=(3, 3), stride=(1, 1), padding=(1, 1), groups=32, bias=False)
          (6): BatchNorm2d(32, eps=1e-05, momentum=0.1, affine=False, track_running_stats=True)
          (7): Conv2d(32, 32, kernel_size=(1, 1), stride=(1, 1), bias=False)
          (8): BatchNorm2d(32, eps=1e-05, momentum=0.1, affine=False, track_running_stats=True)
          (9): ReLU(inplace=True)
          (10): Conv2d(32, 32, kernel_size=(3, 3), stride=(1, 1), padding=(1, 1), groups=32, bias=False)
          (11): BatchNorm2d(32, eps=1e-05, momentum=0.1, affine=False, track_running_stats=True)
          (12): Conv2d(32, 56, kernel_size=(1, 1), stride=(1, 1), bias=False)
          (13): BatchNorm2d(56, eps=1e-05, momentum=0.1, affine=False, track_running_stats=True)
          (14): ReLU(inplace=True)
        )
      )
    )
    (1): ModuleList(
      (0): Choice_Block(
        (cb_main): Sequential(
          (0): Conv2d(32, 32, kernel_size=(1, 1), stride=(1, 1), bias=False)
          (1): BatchNorm2d(32, eps=1e-05, momentum=0.1, affine=False, track_running_stats=True)
          (2): ReLU(inplace=True)
          (3): Conv2d(32, 32, kernel_size=(3, 3), stride=(1, 1), padding=(1, 1), groups=32, bias=False)
          (4): BatchNorm2d(32, eps=1e-05, momentum=0.1, affine=False, track_running_stats=True)
          (5): Conv2d(32, 32, kernel_size=(1, 1), stride=(1, 1), bias=False)
          (6): BatchNorm2d(32, eps=1e-05, momentum=0.1, affine=False, track_running_stats=True)
          (7): ReLU(inplace=True)
        )
      )
      (1): Choice_Block(
        (cb_main): Sequential(
          (0): Conv2d(32, 32, kernel_size=(1, 1), stride=(1, 1), bias=False)
          (1): BatchNorm2d(32, eps=1e-05, momentum=0.1, affine=False, track_running_stats=True)
          (2): ReLU(inplace=True)
          (3): Conv2d(32, 32, kernel_size=(5, 5), stride=(1, 1), padding=(2, 2), groups=32, bias=False)
          (4): BatchNorm2d(32, eps=1e-05, momentum=0.1, affine=False, track_running_stats=True)
          (5): Conv2d(32, 32, kernel_size=(1, 1), stride=(1, 1), bias=False)
          (6): BatchNorm2d(32, eps=1e-05, momentum=0.1, affine=False, track_running_stats=True)
          (7): ReLU(inplace=True)
        )
      )
      (2): Choice_Block(
        (cb_main): Sequential(
          (0): Conv2d(32, 32, kernel_size=(1, 1), stride=(1, 1), bias=False)
          (1): BatchNorm2d(32, eps=1e-05, momentum=0.1, affine=False, track_running_stats=True)
          (2): ReLU(inplace=True)
          (3): Conv2d(32, 32, kernel_size=(7, 7), stride=(1, 1), padding=(3, 3), groups=32, bias=False)
          (4): BatchNorm2d(32, eps=1e-05, momentum=0.1, affine=False, track_running_stats=True)
          (5): Conv2d(32, 32, kernel_size=(1, 1), stride=(1, 1), bias=False)
          (6): BatchNorm2d(32, eps=1e-05, momentum=0.1, affine=False, track_running_stats=True)
          (7): ReLU(inplace=True)
        )
      )
      (3): Choice_Block_x(
        (cb_main): Sequential(
          (0): Conv2d(32, 32, kernel_size=(3, 3), stride=(1, 1), padding=(1, 1), groups=32, bias=False)
          (1): BatchNorm2d(32, eps=1e-05, momentum=0.1, affine=False, track_running_stats=True)
          (2): Conv2d(32, 32, kernel_size=(1, 1), stride=(1, 1), bias=False)
          (3): BatchNorm2d(32, eps=1e-05, momentum=0.1, affine=False, track_running_stats=True)
          (4): ReLU(inplace=True)
          (5): Conv2d(32, 32, kernel_size=(3, 3), stride=(1, 1), padding=(1, 1), groups=32, bias=False)
          (6): BatchNorm2d(32, eps=1e-05, momentum=0.1, affine=False, track_running_stats=True)
          (7): Conv2d(32, 32, kernel_size=(1, 1), stride=(1, 1), bias=False)
          (8): BatchNorm2d(32, eps=1e-05, momentum=0.1, affine=False, track_running_stats=True)
          (9): ReLU(inplace=True)
          (10): Conv2d(32, 32, kernel_size=(3, 3), stride=(1, 1), padding=(1, 1), groups=32, bias=False)
          (11): BatchNorm2d(32, eps=1e-05, momentum=0.1, affine=False, track_running_stats=True)
          (12): Conv2d(32, 32, kernel_size=(1, 1), stride=(1, 1), bias=False)
          (13): BatchNorm2d(32, eps=1e-05, momentum=0.1, affine=False, track_running_stats=True)
          (14): ReLU(inplace=True)
        )
      )
    )
    (2): ModuleList(
      (0): Choice_Block(
        (cb_main): Sequential(
          (0): Conv2d(32, 32, kernel_size=(1, 1), stride=(1, 1), bias=False)
          (1): BatchNorm2d(32, eps=1e-05, momentum=0.1, affine=False, track_running_stats=True)
          (2): ReLU(inplace=True)
          (3): Conv2d(32, 32, kernel_size=(3, 3), stride=(1, 1), padding=(1, 1), groups=32, bias=False)
          (4): BatchNorm2d(32, eps=1e-05, momentum=0.1, affine=False, track_running_stats=True)
          (5): Conv2d(32, 32, kernel_size=(1, 1), stride=(1, 1), bias=False)
          (6): BatchNorm2d(32, eps=1e-05, momentum=0.1, affine=False, track_running_stats=True)
          (7): ReLU(inplace=True)
        )
      )
      (1): Choice_Block(
        (cb_main): Sequential(
          (0): Conv2d(32, 32, kernel_size=(1, 1), stride=(1, 1), bias=False)
          (1): BatchNorm2d(32, eps=1e-05, momentum=0.1, affine=False, track_running_stats=True)
          (2): ReLU(inplace=True)
          (3): Conv2d(32, 32, kernel_size=(5, 5), stride=(1, 1), padding=(2, 2), groups=32, bias=False)
          (4): BatchNorm2d(32, eps=1e-05, momentum=0.1, affine=False, track_running_stats=True)
          (5): Conv2d(32, 32, kernel_size=(1, 1), stride=(1, 1), bias=False)
          (6): BatchNorm2d(32, eps=1e-05, momentum=0.1, affine=False, track_running_stats=True)
          (7): ReLU(inplace=True)
        )
      )
      (2): Choice_Block(
        (cb_main): Sequential(
          (0): Conv2d(32, 32, kernel_size=(1, 1), stride=(1, 1), bias=False)
          (1): BatchNorm2d(32, eps=1e-05, momentum=0.1, affine=False, track_running_stats=True)
          (2): ReLU(inplace=True)
          (3): Conv2d(32, 32, kernel_size=(7, 7), stride=(1, 1), padding=(3, 3), groups=32, bias=False)
          (4): BatchNorm2d(32, eps=1e-05, momentum=0.1, affine=False, track_running_stats=True)
          (5): Conv2d(32, 32, kernel_size=(1, 1), stride=(1, 1), bias=False)
          (6): BatchNorm2d(32, eps=1e-05, momentum=0.1, affine=False, track_running_stats=True)
          (7): ReLU(inplace=True)
        )
      )
      (3): Choice_Block_x(
        (cb_main): Sequential(
          (0): Conv2d(32, 32, kernel_size=(3, 3), stride=(1, 1), padding=(1, 1), groups=32, bias=False)
          (1): BatchNorm2d(32, eps=1e-05, momentum=0.1, affine=False, track_running_stats=True)
          (2): Conv2d(32, 32, kernel_size=(1, 1), stride=(1, 1), bias=False)
          (3): BatchNorm2d(32, eps=1e-05, momentum=0.1, affine=False, track_running_stats=True)
          (4): ReLU(inplace=True)
          (5): Conv2d(32, 32, kernel_size=(3, 3), stride=(1, 1), padding=(1, 1), groups=32, bias=False)
          (6): BatchNorm2d(32, eps=1e-05, momentum=0.1, affine=False, track_running_stats=True)
          (7): Conv2d(32, 32, kernel_size=(1, 1), stride=(1, 1), bias=False)
          (8): BatchNorm2d(32, eps=1e-05, momentum=0.1, affine=False, track_running_stats=True)
          (9): ReLU(inplace=True)
          (10): Conv2d(32, 32, kernel_size=(3, 3), stride=(1, 1), padding=(1, 1), groups=32, bias=False)
          (11): BatchNorm2d(32, eps=1e-05, momentum=0.1, affine=False, track_running_stats=True)
          (12): Conv2d(32, 32, kernel_size=(1, 1), stride=(1, 1), bias=False)
          (13): BatchNorm2d(32, eps=1e-05, momentum=0.1, affine=False, track_running_stats=True)
          (14): ReLU(inplace=True)
        )
      )
    )
    (3): ModuleList(
      (0): Choice_Block(
        (cb_main): Sequential(
          (0): Conv2d(32, 32, kernel_size=(1, 1), stride=(1, 1), bias=False)
          (1): BatchNorm2d(32, eps=1e-05, momentum=0.1, affine=False, track_running_stats=True)
          (2): ReLU(inplace=True)
          (3): Conv2d(32, 32, kernel_size=(3, 3), stride=(1, 1), padding=(1, 1), groups=32, bias=False)
          (4): BatchNorm2d(32, eps=1e-05, momentum=0.1, affine=False, track_running_stats=True)
          (5): Conv2d(32, 32, kernel_size=(1, 1), stride=(1, 1), bias=False)
          (6): BatchNorm2d(32, eps=1e-05, momentum=0.1, affine=False, track_running_stats=True)
          (7): ReLU(inplace=True)
        )
      )
      (1): Choice_Block(
        (cb_main): Sequential(
          (0): Conv2d(32, 32, kernel_size=(1, 1), stride=(1, 1), bias=False)
          (1): BatchNorm2d(32, eps=1e-05, momentum=0.1, affine=False, track_running_stats=True)
          (2): ReLU(inplace=True)
          (3): Conv2d(32, 32, kernel_size=(5, 5), stride=(1, 1), padding=(2, 2), groups=32, bias=False)
          (4): BatchNorm2d(32, eps=1e-05, momentum=0.1, affine=False, track_running_stats=True)
          (5): Conv2d(32, 32, kernel_size=(1, 1), stride=(1, 1), bias=False)
          (6): BatchNorm2d(32, eps=1e-05, momentum=0.1, affine=False, track_running_stats=True)
          (7): ReLU(inplace=True)
        )
      )
      (2): Choice_Block(
        (cb_main): Sequential(
          (0): Conv2d(32, 32, kernel_size=(1, 1), stride=(1, 1), bias=False)
          (1): BatchNorm2d(32, eps=1e-05, momentum=0.1, affine=False, track_running_stats=True)
          (2): ReLU(inplace=True)
          (3): Conv2d(32, 32, kernel_size=(7, 7), stride=(1, 1), padding=(3, 3), groups=32, bias=False)
          (4): BatchNorm2d(32, eps=1e-05, momentum=0.1, affine=False, track_running_stats=True)
          (5): Conv2d(32, 32, kernel_size=(1, 1), stride=(1, 1), bias=False)
          (6): BatchNorm2d(32, eps=1e-05, momentum=0.1, affine=False, track_running_stats=True)
          (7): ReLU(inplace=True)
        )
      )
      (3): Choice_Block_x(
        (cb_main): Sequential(
          (0): Conv2d(32, 32, kernel_size=(3, 3), stride=(1, 1), padding=(1, 1), groups=32, bias=False)
          (1): BatchNorm2d(32, eps=1e-05, momentum=0.1, affine=False, track_running_stats=True)
          (2): Conv2d(32, 32, kernel_size=(1, 1), stride=(1, 1), bias=False)
          (3): BatchNorm2d(32, eps=1e-05, momentum=0.1, affine=False, track_running_stats=True)
          (4): ReLU(inplace=True)
          (5): Conv2d(32, 32, kernel_size=(3, 3), stride=(1, 1), padding=(1, 1), groups=32, bias=False)
          (6): BatchNorm2d(32, eps=1e-05, momentum=0.1, affine=False, track_running_stats=True)
          (7): Conv2d(32, 32, kernel_size=(1, 1), stride=(1, 1), bias=False)
          (8): BatchNorm2d(32, eps=1e-05, momentum=0.1, affine=False, track_running_stats=True)
          (9): ReLU(inplace=True)
          (10): Conv2d(32, 32, kernel_size=(3, 3), stride=(1, 1), padding=(1, 1), groups=32, bias=False)
          (11): BatchNorm2d(32, eps=1e-05, momentum=0.1, affine=False, track_running_stats=True)
          (12): Conv2d(32, 32, kernel_size=(1, 1), stride=(1, 1), bias=False)
          (13): BatchNorm2d(32, eps=1e-05, momentum=0.1, affine=False, track_running_stats=True)
          (14): ReLU(inplace=True)
        )
      )
    )
    (4): ModuleList(
      (0): Choice_Block(
        (cb_main): Sequential(
          (0): Conv2d(64, 80, kernel_size=(1, 1), stride=(1, 1), bias=False)
          (1): BatchNorm2d(80, eps=1e-05, momentum=0.1, affine=False, track_running_stats=True)
          (2): ReLU(inplace=True)
          (3): Conv2d(80, 80, kernel_size=(3, 3), stride=(2, 2), padding=(1, 1), groups=80, bias=False)
          (4): BatchNorm2d(80, eps=1e-05, momentum=0.1, affine=False, track_running_stats=True)
          (5): Conv2d(80, 96, kernel_size=(1, 1), stride=(1, 1), bias=False)
          (6): BatchNorm2d(96, eps=1e-05, momentum=0.1, affine=False, track_running_stats=True)
          (7): ReLU(inplace=True)
        )
        (cb_proj): Sequential(
          (0): Conv2d(64, 64, kernel_size=(3, 3), stride=(2, 2), padding=(1, 1), groups=64, bias=False)
          (1): BatchNorm2d(64, eps=1e-05, momentum=0.1, affine=False, track_running_stats=True)
          (2): Conv2d(64, 64, kernel_size=(1, 1), stride=(1, 1), bias=False)
          (3): BatchNorm2d(64, eps=1e-05, momentum=0.1, affine=False, track_running_stats=True)
          (4): ReLU(inplace=True)
        )
      )
      (1): Choice_Block(
        (cb_main): Sequential(
          (0): Conv2d(64, 80, kernel_size=(1, 1), stride=(1, 1), bias=False)
          (1): BatchNorm2d(80, eps=1e-05, momentum=0.1, affine=False, track_running_stats=True)
          (2): ReLU(inplace=True)
          (3): Conv2d(80, 80, kernel_size=(5, 5), stride=(2, 2), padding=(2, 2), groups=80, bias=False)
          (4): BatchNorm2d(80, eps=1e-05, momentum=0.1, affine=False, track_running_stats=True)
          (5): Conv2d(80, 96, kernel_size=(1, 1), stride=(1, 1), bias=False)
          (6): BatchNorm2d(96, eps=1e-05, momentum=0.1, affine=False, track_running_stats=True)
          (7): ReLU(inplace=True)
        )
        (cb_proj): Sequential(
          (0): Conv2d(64, 64, kernel_size=(5, 5), stride=(2, 2), padding=(2, 2), groups=64, bias=False)
          (1): BatchNorm2d(64, eps=1e-05, momentum=0.1, affine=False, track_running_stats=True)
          (2): Conv2d(64, 64, kernel_size=(1, 1), stride=(1, 1), bias=False)
          (3): BatchNorm2d(64, eps=1e-05, momentum=0.1, affine=False, track_running_stats=True)
          (4): ReLU(inplace=True)
        )
      )
      (2): Choice_Block(
        (cb_main): Sequential(
          (0): Conv2d(64, 80, kernel_size=(1, 1), stride=(1, 1), bias=False)
          (1): BatchNorm2d(80, eps=1e-05, momentum=0.1, affine=False, track_running_stats=True)
          (2): ReLU(inplace=True)
          (3): Conv2d(80, 80, kernel_size=(7, 7), stride=(2, 2), padding=(3, 3), groups=80, bias=False)
          (4): BatchNorm2d(80, eps=1e-05, momentum=0.1, affine=False, track_running_stats=True)
          (5): Conv2d(80, 96, kernel_size=(1, 1), stride=(1, 1), bias=False)
          (6): BatchNorm2d(96, eps=1e-05, momentum=0.1, affine=False, track_running_stats=True)
          (7): ReLU(inplace=True)
        )
        (cb_proj): Sequential(
          (0): Conv2d(64, 64, kernel_size=(7, 7), stride=(2, 2), padding=(3, 3), groups=64, bias=False)
          (1): BatchNorm2d(64, eps=1e-05, momentum=0.1, affine=False, track_running_stats=True)
          (2): Conv2d(64, 64, kernel_size=(1, 1), stride=(1, 1), bias=False)
          (3): BatchNorm2d(64, eps=1e-05, momentum=0.1, affine=False, track_running_stats=True)
          (4): ReLU(inplace=True)
        )
      )
      (3): Choice_Block_x(
        (cb_main): Sequential(
          (0): Conv2d(64, 64, kernel_size=(3, 3), stride=(2, 2), padding=(1, 1), groups=64, bias=False)
          (1): BatchNorm2d(64, eps=1e-05, momentum=0.1, affine=False, track_running_stats=True)
          (2): Conv2d(64, 80, kernel_size=(1, 1), stride=(1, 1), bias=False)
          (3): BatchNorm2d(80, eps=1e-05, momentum=0.1, affine=False, track_running_stats=True)
          (4): ReLU(inplace=True)
          (5): Conv2d(80, 80, kernel_size=(3, 3), stride=(1, 1), padding=(1, 1), groups=80, bias=False)
          (6): BatchNorm2d(80, eps=1e-05, momentum=0.1, affine=False, track_running_stats=True)
          (7): Conv2d(80, 80, kernel_size=(1, 1), stride=(1, 1), bias=False)
          (8): BatchNorm2d(80, eps=1e-05, momentum=0.1, affine=False, track_running_stats=True)
          (9): ReLU(inplace=True)
          (10): Conv2d(80, 80, kernel_size=(3, 3), stride=(1, 1), padding=(1, 1), groups=80, bias=False)
          (11): BatchNorm2d(80, eps=1e-05, momentum=0.1, affine=False, track_running_stats=True)
          (12): Conv2d(80, 96, kernel_size=(1, 1), stride=(1, 1), bias=False)
          (13): BatchNorm2d(96, eps=1e-05, momentum=0.1, affine=False, track_running_stats=True)
          (14): ReLU(inplace=True)
        )
        (cb_proj): Sequential(
          (0): Conv2d(64, 64, kernel_size=(3, 3), stride=(2, 2), padding=(1, 1), groups=64, bias=False)
          (1): BatchNorm2d(64, eps=1e-05, momentum=0.1, affine=False, track_running_stats=True)
          (2): Conv2d(64, 64, kernel_size=(1, 1), stride=(1, 1), bias=False)
          (3): BatchNorm2d(64, eps=1e-05, momentum=0.1, affine=False, track_running_stats=True)
          (4): ReLU(inplace=True)
        )
      )
    )
    (5): ModuleList(
      (0): Choice_Block(
        (cb_main): Sequential(
          (0): Conv2d(80, 80, kernel_size=(1, 1), stride=(1, 1), bias=False)
          (1): BatchNorm2d(80, eps=1e-05, momentum=0.1, affine=False, track_running_stats=True)
          (2): ReLU(inplace=True)
          (3): Conv2d(80, 80, kernel_size=(3, 3), stride=(1, 1), padding=(1, 1), groups=80, bias=False)
          (4): BatchNorm2d(80, eps=1e-05, momentum=0.1, affine=False, track_running_stats=True)
          (5): Conv2d(80, 80, kernel_size=(1, 1), stride=(1, 1), bias=False)
          (6): BatchNorm2d(80, eps=1e-05, momentum=0.1, affine=False, track_running_stats=True)
          (7): ReLU(inplace=True)
        )
      )
      (1): Choice_Block(
        (cb_main): Sequential(
          (0): Conv2d(80, 80, kernel_size=(1, 1), stride=(1, 1), bias=False)
          (1): BatchNorm2d(80, eps=1e-05, momentum=0.1, affine=False, track_running_stats=True)
          (2): ReLU(inplace=True)
          (3): Conv2d(80, 80, kernel_size=(5, 5), stride=(1, 1), padding=(2, 2), groups=80, bias=False)
          (4): BatchNorm2d(80, eps=1e-05, momentum=0.1, affine=False, track_running_stats=True)
          (5): Conv2d(80, 80, kernel_size=(1, 1), stride=(1, 1), bias=False)
          (6): BatchNorm2d(80, eps=1e-05, momentum=0.1, affine=False, track_running_stats=True)
          (7): ReLU(inplace=True)
        )
      )
      (2): Choice_Block(
        (cb_main): Sequential(
          (0): Conv2d(80, 80, kernel_size=(1, 1), stride=(1, 1), bias=False)
          (1): BatchNorm2d(80, eps=1e-05, momentum=0.1, affine=False, track_running_stats=True)
          (2): ReLU(inplace=True)
          (3): Conv2d(80, 80, kernel_size=(7, 7), stride=(1, 1), padding=(3, 3), groups=80, bias=False)
          (4): BatchNorm2d(80, eps=1e-05, momentum=0.1, affine=False, track_running_stats=True)
          (5): Conv2d(80, 80, kernel_size=(1, 1), stride=(1, 1), bias=False)
          (6): BatchNorm2d(80, eps=1e-05, momentum=0.1, affine=False, track_running_stats=True)
          (7): ReLU(inplace=True)
        )
      )
      (3): Choice_Block_x(
        (cb_main): Sequential(
          (0): Conv2d(80, 80, kernel_size=(3, 3), stride=(1, 1), padding=(1, 1), groups=80, bias=False)
          (1): BatchNorm2d(80, eps=1e-05, momentum=0.1, affine=False, track_running_stats=True)
          (2): Conv2d(80, 80, kernel_size=(1, 1), stride=(1, 1), bias=False)
          (3): BatchNorm2d(80, eps=1e-05, momentum=0.1, affine=False, track_running_stats=True)
          (4): ReLU(inplace=True)
          (5): Conv2d(80, 80, kernel_size=(3, 3), stride=(1, 1), padding=(1, 1), groups=80, bias=False)
          (6): BatchNorm2d(80, eps=1e-05, momentum=0.1, affine=False, track_running_stats=True)
          (7): Conv2d(80, 80, kernel_size=(1, 1), stride=(1, 1), bias=False)
          (8): BatchNorm2d(80, eps=1e-05, momentum=0.1, affine=False, track_running_stats=True)
          (9): ReLU(inplace=True)
          (10): Conv2d(80, 80, kernel_size=(3, 3), stride=(1, 1), padding=(1, 1), groups=80, bias=False)
          (11): BatchNorm2d(80, eps=1e-05, momentum=0.1, affine=False, track_running_stats=True)
          (12): Conv2d(80, 80, kernel_size=(1, 1), stride=(1, 1), bias=False)
          (13): BatchNorm2d(80, eps=1e-05, momentum=0.1, affine=False, track_running_stats=True)
          (14): ReLU(inplace=True)
        )
      )
    )
    (6): ModuleList(
      (0): Choice_Block(
        (cb_main): Sequential(
          (0): Conv2d(80, 80, kernel_size=(1, 1), stride=(1, 1), bias=False)
          (1): BatchNorm2d(80, eps=1e-05, momentum=0.1, affine=False, track_running_stats=True)
          (2): ReLU(inplace=True)
          (3): Conv2d(80, 80, kernel_size=(3, 3), stride=(1, 1), padding=(1, 1), groups=80, bias=False)
          (4): BatchNorm2d(80, eps=1e-05, momentum=0.1, affine=False, track_running_stats=True)
          (5): Conv2d(80, 80, kernel_size=(1, 1), stride=(1, 1), bias=False)
          (6): BatchNorm2d(80, eps=1e-05, momentum=0.1, affine=False, track_running_stats=True)
          (7): ReLU(inplace=True)
        )
      )
      (1): Choice_Block(
        (cb_main): Sequential(
          (0): Conv2d(80, 80, kernel_size=(1, 1), stride=(1, 1), bias=False)
          (1): BatchNorm2d(80, eps=1e-05, momentum=0.1, affine=False, track_running_stats=True)
          (2): ReLU(inplace=True)
          (3): Conv2d(80, 80, kernel_size=(5, 5), stride=(1, 1), padding=(2, 2), groups=80, bias=False)
          (4): BatchNorm2d(80, eps=1e-05, momentum=0.1, affine=False, track_running_stats=True)
          (5): Conv2d(80, 80, kernel_size=(1, 1), stride=(1, 1), bias=False)
          (6): BatchNorm2d(80, eps=1e-05, momentum=0.1, affine=False, track_running_stats=True)
          (7): ReLU(inplace=True)
        )
      )
      (2): Choice_Block(
        (cb_main): Sequential(
          (0): Conv2d(80, 80, kernel_size=(1, 1), stride=(1, 1), bias=False)
          (1): BatchNorm2d(80, eps=1e-05, momentum=0.1, affine=False, track_running_stats=True)
          (2): ReLU(inplace=True)
          (3): Conv2d(80, 80, kernel_size=(7, 7), stride=(1, 1), padding=(3, 3), groups=80, bias=False)
          (4): BatchNorm2d(80, eps=1e-05, momentum=0.1, affine=False, track_running_stats=True)
          (5): Conv2d(80, 80, kernel_size=(1, 1), stride=(1, 1), bias=False)
          (6): BatchNorm2d(80, eps=1e-05, momentum=0.1, affine=False, track_running_stats=True)
          (7): ReLU(inplace=True)
        )
      )
      (3): Choice_Block_x(
        (cb_main): Sequential(
          (0): Conv2d(80, 80, kernel_size=(3, 3), stride=(1, 1), padding=(1, 1), groups=80, bias=False)
          (1): BatchNorm2d(80, eps=1e-05, momentum=0.1, affine=False, track_running_stats=True)
          (2): Conv2d(80, 80, kernel_size=(1, 1), stride=(1, 1), bias=False)
          (3): BatchNorm2d(80, eps=1e-05, momentum=0.1, affine=False, track_running_stats=True)
          (4): ReLU(inplace=True)
          (5): Conv2d(80, 80, kernel_size=(3, 3), stride=(1, 1), padding=(1, 1), groups=80, bias=False)
          (6): BatchNorm2d(80, eps=1e-05, momentum=0.1, affine=False, track_running_stats=True)
          (7): Conv2d(80, 80, kernel_size=(1, 1), stride=(1, 1), bias=False)
          (8): BatchNorm2d(80, eps=1e-05, momentum=0.1, affine=False, track_running_stats=True)
          (9): ReLU(inplace=True)
          (10): Conv2d(80, 80, kernel_size=(3, 3), stride=(1, 1), padding=(1, 1), groups=80, bias=False)
          (11): BatchNorm2d(80, eps=1e-05, momentum=0.1, affine=False, track_running_stats=True)
          (12): Conv2d(80, 80, kernel_size=(1, 1), stride=(1, 1), bias=False)
          (13): BatchNorm2d(80, eps=1e-05, momentum=0.1, affine=False, track_running_stats=True)
          (14): ReLU(inplace=True)
        )
      )
    )
    (7): ModuleList(
      (0): Choice_Block(
        (cb_main): Sequential(
          (0): Conv2d(80, 80, kernel_size=(1, 1), stride=(1, 1), bias=False)
          (1): BatchNorm2d(80, eps=1e-05, momentum=0.1, affine=False, track_running_stats=True)
          (2): ReLU(inplace=True)
          (3): Conv2d(80, 80, kernel_size=(3, 3), stride=(1, 1), padding=(1, 1), groups=80, bias=False)
          (4): BatchNorm2d(80, eps=1e-05, momentum=0.1, affine=False, track_running_stats=True)
          (5): Conv2d(80, 80, kernel_size=(1, 1), stride=(1, 1), bias=False)
          (6): BatchNorm2d(80, eps=1e-05, momentum=0.1, affine=False, track_running_stats=True)
          (7): ReLU(inplace=True)
        )
      )
      (1): Choice_Block(
        (cb_main): Sequential(
          (0): Conv2d(80, 80, kernel_size=(1, 1), stride=(1, 1), bias=False)
          (1): BatchNorm2d(80, eps=1e-05, momentum=0.1, affine=False, track_running_stats=True)
          (2): ReLU(inplace=True)
          (3): Conv2d(80, 80, kernel_size=(5, 5), stride=(1, 1), padding=(2, 2), groups=80, bias=False)
          (4): BatchNorm2d(80, eps=1e-05, momentum=0.1, affine=False, track_running_stats=True)
          (5): Conv2d(80, 80, kernel_size=(1, 1), stride=(1, 1), bias=False)
          (6): BatchNorm2d(80, eps=1e-05, momentum=0.1, affine=False, track_running_stats=True)
          (7): ReLU(inplace=True)
        )
      )
      (2): Choice_Block(
        (cb_main): Sequential(
          (0): Conv2d(80, 80, kernel_size=(1, 1), stride=(1, 1), bias=False)
          (1): BatchNorm2d(80, eps=1e-05, momentum=0.1, affine=False, track_running_stats=True)
          (2): ReLU(inplace=True)
          (3): Conv2d(80, 80, kernel_size=(7, 7), stride=(1, 1), padding=(3, 3), groups=80, bias=False)
          (4): BatchNorm2d(80, eps=1e-05, momentum=0.1, affine=False, track_running_stats=True)
          (5): Conv2d(80, 80, kernel_size=(1, 1), stride=(1, 1), bias=False)
          (6): BatchNorm2d(80, eps=1e-05, momentum=0.1, affine=False, track_running_stats=True)
          (7): ReLU(inplace=True)
        )
      )
      (3): Choice_Block_x(
        (cb_main): Sequential(
          (0): Conv2d(80, 80, kernel_size=(3, 3), stride=(1, 1), padding=(1, 1), groups=80, bias=False)
          (1): BatchNorm2d(80, eps=1e-05, momentum=0.1, affine=False, track_running_stats=True)
          (2): Conv2d(80, 80, kernel_size=(1, 1), stride=(1, 1), bias=False)
          (3): BatchNorm2d(80, eps=1e-05, momentum=0.1, affine=False, track_running_stats=True)
          (4): ReLU(inplace=True)
          (5): Conv2d(80, 80, kernel_size=(3, 3), stride=(1, 1), padding=(1, 1), groups=80, bias=False)
          (6): BatchNorm2d(80, eps=1e-05, momentum=0.1, affine=False, track_running_stats=True)
          (7): Conv2d(80, 80, kernel_size=(1, 1), stride=(1, 1), bias=False)
          (8): BatchNorm2d(80, eps=1e-05, momentum=0.1, affine=False, track_running_stats=True)
          (9): ReLU(inplace=True)
          (10): Conv2d(80, 80, kernel_size=(3, 3), stride=(1, 1), padding=(1, 1), groups=80, bias=False)
          (11): BatchNorm2d(80, eps=1e-05, momentum=0.1, affine=False, track_running_stats=True)
          (12): Conv2d(80, 80, kernel_size=(1, 1), stride=(1, 1), bias=False)
          (13): BatchNorm2d(80, eps=1e-05, momentum=0.1, affine=False, track_running_stats=True)
          (14): ReLU(inplace=True)
        )
      )
    )
    (8): ModuleList(
      (0): Choice_Block(
        (cb_main): Sequential(
          (0): Conv2d(160, 160, kernel_size=(1, 1), stride=(1, 1), bias=False)
          (1): BatchNorm2d(160, eps=1e-05, momentum=0.1, affine=False, track_running_stats=True)
          (2): ReLU(inplace=True)
          (3): Conv2d(160, 160, kernel_size=(3, 3), stride=(2, 2), padding=(1, 1), groups=160, bias=False)
          (4): BatchNorm2d(160, eps=1e-05, momentum=0.1, affine=False, track_running_stats=True)
          (5): Conv2d(160, 160, kernel_size=(1, 1), stride=(1, 1), bias=False)
          (6): BatchNorm2d(160, eps=1e-05, momentum=0.1, affine=False, track_running_stats=True)
          (7): ReLU(inplace=True)
        )
        (cb_proj): Sequential(
          (0): Conv2d(160, 160, kernel_size=(3, 3), stride=(2, 2), padding=(1, 1), groups=160, bias=False)
          (1): BatchNorm2d(160, eps=1e-05, momentum=0.1, affine=False, track_running_stats=True)
          (2): Conv2d(160, 160, kernel_size=(1, 1), stride=(1, 1), bias=False)
          (3): BatchNorm2d(160, eps=1e-05, momentum=0.1, affine=False, track_running_stats=True)
          (4): ReLU(inplace=True)
        )
      )
      (1): Choice_Block(
        (cb_main): Sequential(
          (0): Conv2d(160, 160, kernel_size=(1, 1), stride=(1, 1), bias=False)
          (1): BatchNorm2d(160, eps=1e-05, momentum=0.1, affine=False, track_running_stats=True)
          (2): ReLU(inplace=True)
          (3): Conv2d(160, 160, kernel_size=(5, 5), stride=(2, 2), padding=(2, 2), groups=160, bias=False)
          (4): BatchNorm2d(160, eps=1e-05, momentum=0.1, affine=False, track_running_stats=True)
          (5): Conv2d(160, 160, kernel_size=(1, 1), stride=(1, 1), bias=False)
          (6): BatchNorm2d(160, eps=1e-05, momentum=0.1, affine=False, track_running_stats=True)
          (7): ReLU(inplace=True)
        )
        (cb_proj): Sequential(
          (0): Conv2d(160, 160, kernel_size=(5, 5), stride=(2, 2), padding=(2, 2), groups=160, bias=False)
          (1): BatchNorm2d(160, eps=1e-05, momentum=0.1, affine=False, track_running_stats=True)
          (2): Conv2d(160, 160, kernel_size=(1, 1), stride=(1, 1), bias=False)
          (3): BatchNorm2d(160, eps=1e-05, momentum=0.1, affine=False, track_running_stats=True)
          (4): ReLU(inplace=True)
        )
      )
      (2): Choice_Block(
        (cb_main): Sequential(
          (0): Conv2d(160, 160, kernel_size=(1, 1), stride=(1, 1), bias=False)
          (1): BatchNorm2d(160, eps=1e-05, momentum=0.1, affine=False, track_running_stats=True)
          (2): ReLU(inplace=True)
          (3): Conv2d(160, 160, kernel_size=(7, 7), stride=(2, 2), padding=(3, 3), groups=160, bias=False)
          (4): BatchNorm2d(160, eps=1e-05, momentum=0.1, affine=False, track_running_stats=True)
          (5): Conv2d(160, 160, kernel_size=(1, 1), stride=(1, 1), bias=False)
          (6): BatchNorm2d(160, eps=1e-05, momentum=0.1, affine=False, track_running_stats=True)
          (7): ReLU(inplace=True)
        )
        (cb_proj): Sequential(
          (0): Conv2d(160, 160, kernel_size=(7, 7), stride=(2, 2), padding=(3, 3), groups=160, bias=False)
          (1): BatchNorm2d(160, eps=1e-05, momentum=0.1, affine=False, track_running_stats=True)
          (2): Conv2d(160, 160, kernel_size=(1, 1), stride=(1, 1), bias=False)
          (3): BatchNorm2d(160, eps=1e-05, momentum=0.1, affine=False, track_running_stats=True)
          (4): ReLU(inplace=True)
        )
      )
      (3): Choice_Block_x(
        (cb_main): Sequential(
          (0): Conv2d(160, 160, kernel_size=(3, 3), stride=(2, 2), padding=(1, 1), groups=160, bias=False)
          (1): BatchNorm2d(160, eps=1e-05, momentum=0.1, affine=False, track_running_stats=True)
          (2): Conv2d(160, 160, kernel_size=(1, 1), stride=(1, 1), bias=False)
          (3): BatchNorm2d(160, eps=1e-05, momentum=0.1, affine=False, track_running_stats=True)
          (4): ReLU(inplace=True)
          (5): Conv2d(160, 160, kernel_size=(3, 3), stride=(1, 1), padding=(1, 1), groups=160, bias=False)
          (6): BatchNorm2d(160, eps=1e-05, momentum=0.1, affine=False, track_running_stats=True)
          (7): Conv2d(160, 160, kernel_size=(1, 1), stride=(1, 1), bias=False)
          (8): BatchNorm2d(160, eps=1e-05, momentum=0.1, affine=False, track_running_stats=True)
          (9): ReLU(inplace=True)
          (10): Conv2d(160, 160, kernel_size=(3, 3), stride=(1, 1), padding=(1, 1), groups=160, bias=False)
          (11): BatchNorm2d(160, eps=1e-05, momentum=0.1, affine=False, track_running_stats=True)
          (12): Conv2d(160, 160, kernel_size=(1, 1), stride=(1, 1), bias=False)
          (13): BatchNorm2d(160, eps=1e-05, momentum=0.1, affine=False, track_running_stats=True)
          (14): ReLU(inplace=True)
        )
        (cb_proj): Sequential(
          (0): Conv2d(160, 160, kernel_size=(3, 3), stride=(2, 2), padding=(1, 1), groups=160, bias=False)
          (1): BatchNorm2d(160, eps=1e-05, momentum=0.1, affine=False, track_running_stats=True)
          (2): Conv2d(160, 160, kernel_size=(1, 1), stride=(1, 1), bias=False)
          (3): BatchNorm2d(160, eps=1e-05, momentum=0.1, affine=False, track_running_stats=True)
          (4): ReLU(inplace=True)
        )
      )
    )
    (9): ModuleList(
      (0): Choice_Block(
        (cb_main): Sequential(
          (0): Conv2d(160, 160, kernel_size=(1, 1), stride=(1, 1), bias=False)
          (1): BatchNorm2d(160, eps=1e-05, momentum=0.1, affine=False, track_running_stats=True)
          (2): ReLU(inplace=True)
          (3): Conv2d(160, 160, kernel_size=(3, 3), stride=(1, 1), padding=(1, 1), groups=160, bias=False)
          (4): BatchNorm2d(160, eps=1e-05, momentum=0.1, affine=False, track_running_stats=True)
          (5): Conv2d(160, 160, kernel_size=(1, 1), stride=(1, 1), bias=False)
          (6): BatchNorm2d(160, eps=1e-05, momentum=0.1, affine=False, track_running_stats=True)
          (7): ReLU(inplace=True)
        )
      )
      (1): Choice_Block(
        (cb_main): Sequential(
          (0): Conv2d(160, 160, kernel_size=(1, 1), stride=(1, 1), bias=False)
          (1): BatchNorm2d(160, eps=1e-05, momentum=0.1, affine=False, track_running_stats=True)
          (2): ReLU(inplace=True)
          (3): Conv2d(160, 160, kernel_size=(5, 5), stride=(1, 1), padding=(2, 2), groups=160, bias=False)
          (4): BatchNorm2d(160, eps=1e-05, momentum=0.1, affine=False, track_running_stats=True)
          (5): Conv2d(160, 160, kernel_size=(1, 1), stride=(1, 1), bias=False)
          (6): BatchNorm2d(160, eps=1e-05, momentum=0.1, affine=False, track_running_stats=True)
          (7): ReLU(inplace=True)
        )
      )
      (2): Choice_Block(
        (cb_main): Sequential(
          (0): Conv2d(160, 160, kernel_size=(1, 1), stride=(1, 1), bias=False)
          (1): BatchNorm2d(160, eps=1e-05, momentum=0.1, affine=False, track_running_stats=True)
          (2): ReLU(inplace=True)
          (3): Conv2d(160, 160, kernel_size=(7, 7), stride=(1, 1), padding=(3, 3), groups=160, bias=False)
          (4): BatchNorm2d(160, eps=1e-05, momentum=0.1, affine=False, track_running_stats=True)
          (5): Conv2d(160, 160, kernel_size=(1, 1), stride=(1, 1), bias=False)
          (6): BatchNorm2d(160, eps=1e-05, momentum=0.1, affine=False, track_running_stats=True)
          (7): ReLU(inplace=True)
        )
      )
      (3): Choice_Block_x(
        (cb_main): Sequential(
          (0): Conv2d(160, 160, kernel_size=(3, 3), stride=(1, 1), padding=(1, 1), groups=160, bias=False)
          (1): BatchNorm2d(160, eps=1e-05, momentum=0.1, affine=False, track_running_stats=True)
          (2): Conv2d(160, 160, kernel_size=(1, 1), stride=(1, 1), bias=False)
          (3): BatchNorm2d(160, eps=1e-05, momentum=0.1, affine=False, track_running_stats=True)
          (4): ReLU(inplace=True)
          (5): Conv2d(160, 160, kernel_size=(3, 3), stride=(1, 1), padding=(1, 1), groups=160, bias=False)
          (6): BatchNorm2d(160, eps=1e-05, momentum=0.1, affine=False, track_running_stats=True)
          (7): Conv2d(160, 160, kernel_size=(1, 1), stride=(1, 1), bias=False)
          (8): BatchNorm2d(160, eps=1e-05, momentum=0.1, affine=False, track_running_stats=True)
          (9): ReLU(inplace=True)
          (10): Conv2d(160, 160, kernel_size=(3, 3), stride=(1, 1), padding=(1, 1), groups=160, bias=False)
          (11): BatchNorm2d(160, eps=1e-05, momentum=0.1, affine=False, track_running_stats=True)
          (12): Conv2d(160, 160, kernel_size=(1, 1), stride=(1, 1), bias=False)
          (13): BatchNorm2d(160, eps=1e-05, momentum=0.1, affine=False, track_running_stats=True)
          (14): ReLU(inplace=True)
        )
      )
    )
    (10): ModuleList(
      (0): Choice_Block(
        (cb_main): Sequential(
          (0): Conv2d(160, 160, kernel_size=(1, 1), stride=(1, 1), bias=False)
          (1): BatchNorm2d(160, eps=1e-05, momentum=0.1, affine=False, track_running_stats=True)
          (2): ReLU(inplace=True)
          (3): Conv2d(160, 160, kernel_size=(3, 3), stride=(1, 1), padding=(1, 1), groups=160, bias=False)
          (4): BatchNorm2d(160, eps=1e-05, momentum=0.1, affine=False, track_running_stats=True)
          (5): Conv2d(160, 160, kernel_size=(1, 1), stride=(1, 1), bias=False)
          (6): BatchNorm2d(160, eps=1e-05, momentum=0.1, affine=False, track_running_stats=True)
          (7): ReLU(inplace=True)
        )
      )
      (1): Choice_Block(
        (cb_main): Sequential(
          (0): Conv2d(160, 160, kernel_size=(1, 1), stride=(1, 1), bias=False)
          (1): BatchNorm2d(160, eps=1e-05, momentum=0.1, affine=False, track_running_stats=True)
          (2): ReLU(inplace=True)
          (3): Conv2d(160, 160, kernel_size=(5, 5), stride=(1, 1), padding=(2, 2), groups=160, bias=False)
          (4): BatchNorm2d(160, eps=1e-05, momentum=0.1, affine=False, track_running_stats=True)
          (5): Conv2d(160, 160, kernel_size=(1, 1), stride=(1, 1), bias=False)
          (6): BatchNorm2d(160, eps=1e-05, momentum=0.1, affine=False, track_running_stats=True)
          (7): ReLU(inplace=True)
        )
      )
      (2): Choice_Block(
        (cb_main): Sequential(
          (0): Conv2d(160, 160, kernel_size=(1, 1), stride=(1, 1), bias=False)
          (1): BatchNorm2d(160, eps=1e-05, momentum=0.1, affine=False, track_running_stats=True)
          (2): ReLU(inplace=True)
          (3): Conv2d(160, 160, kernel_size=(7, 7), stride=(1, 1), padding=(3, 3), groups=160, bias=False)
          (4): BatchNorm2d(160, eps=1e-05, momentum=0.1, affine=False, track_running_stats=True)
          (5): Conv2d(160, 160, kernel_size=(1, 1), stride=(1, 1), bias=False)
          (6): BatchNorm2d(160, eps=1e-05, momentum=0.1, affine=False, track_running_stats=True)
          (7): ReLU(inplace=True)
        )
      )
      (3): Choice_Block_x(
        (cb_main): Sequential(
          (0): Conv2d(160, 160, kernel_size=(3, 3), stride=(1, 1), padding=(1, 1), groups=160, bias=False)
          (1): BatchNorm2d(160, eps=1e-05, momentum=0.1, affine=False, track_running_stats=True)
          (2): Conv2d(160, 160, kernel_size=(1, 1), stride=(1, 1), bias=False)
          (3): BatchNorm2d(160, eps=1e-05, momentum=0.1, affine=False, track_running_stats=True)
          (4): ReLU(inplace=True)
          (5): Conv2d(160, 160, kernel_size=(3, 3), stride=(1, 1), padding=(1, 1), groups=160, bias=False)
          (6): BatchNorm2d(160, eps=1e-05, momentum=0.1, affine=False, track_running_stats=True)
          (7): Conv2d(160, 160, kernel_size=(1, 1), stride=(1, 1), bias=False)
          (8): BatchNorm2d(160, eps=1e-05, momentum=0.1, affine=False, track_running_stats=True)
          (9): ReLU(inplace=True)
          (10): Conv2d(160, 160, kernel_size=(3, 3), stride=(1, 1), padding=(1, 1), groups=160, bias=False)
          (11): BatchNorm2d(160, eps=1e-05, momentum=0.1, affine=False, track_running_stats=True)
          (12): Conv2d(160, 160, kernel_size=(1, 1), stride=(1, 1), bias=False)
          (13): BatchNorm2d(160, eps=1e-05, momentum=0.1, affine=False, track_running_stats=True)
          (14): ReLU(inplace=True)
        )
      )
    )
    (11): ModuleList(
      (0): Choice_Block(
        (cb_main): Sequential(
          (0): Conv2d(160, 160, kernel_size=(1, 1), stride=(1, 1), bias=False)
          (1): BatchNorm2d(160, eps=1e-05, momentum=0.1, affine=False, track_running_stats=True)
          (2): ReLU(inplace=True)
          (3): Conv2d(160, 160, kernel_size=(3, 3), stride=(1, 1), padding=(1, 1), groups=160, bias=False)
          (4): BatchNorm2d(160, eps=1e-05, momentum=0.1, affine=False, track_running_stats=True)
          (5): Conv2d(160, 160, kernel_size=(1, 1), stride=(1, 1), bias=False)
          (6): BatchNorm2d(160, eps=1e-05, momentum=0.1, affine=False, track_running_stats=True)
          (7): ReLU(inplace=True)
        )
      )
      (1): Choice_Block(
        (cb_main): Sequential(
          (0): Conv2d(160, 160, kernel_size=(1, 1), stride=(1, 1), bias=False)
          (1): BatchNorm2d(160, eps=1e-05, momentum=0.1, affine=False, track_running_stats=True)
          (2): ReLU(inplace=True)
          (3): Conv2d(160, 160, kernel_size=(5, 5), stride=(1, 1), padding=(2, 2), groups=160, bias=False)
          (4): BatchNorm2d(160, eps=1e-05, momentum=0.1, affine=False, track_running_stats=True)
          (5): Conv2d(160, 160, kernel_size=(1, 1), stride=(1, 1), bias=False)
          (6): BatchNorm2d(160, eps=1e-05, momentum=0.1, affine=False, track_running_stats=True)
          (7): ReLU(inplace=True)
        )
      )
      (2): Choice_Block(
        (cb_main): Sequential(
          (0): Conv2d(160, 160, kernel_size=(1, 1), stride=(1, 1), bias=False)
          (1): BatchNorm2d(160, eps=1e-05, momentum=0.1, affine=False, track_running_stats=True)
          (2): ReLU(inplace=True)
          (3): Conv2d(160, 160, kernel_size=(7, 7), stride=(1, 1), padding=(3, 3), groups=160, bias=False)
          (4): BatchNorm2d(160, eps=1e-05, momentum=0.1, affine=False, track_running_stats=True)
          (5): Conv2d(160, 160, kernel_size=(1, 1), stride=(1, 1), bias=False)
          (6): BatchNorm2d(160, eps=1e-05, momentum=0.1, affine=False, track_running_stats=True)
          (7): ReLU(inplace=True)
        )
      )
      (3): Choice_Block_x(
        (cb_main): Sequential(
          (0): Conv2d(160, 160, kernel_size=(3, 3), stride=(1, 1), padding=(1, 1), groups=160, bias=False)
          (1): BatchNorm2d(160, eps=1e-05, momentum=0.1, affine=False, track_running_stats=True)
          (2): Conv2d(160, 160, kernel_size=(1, 1), stride=(1, 1), bias=False)
          (3): BatchNorm2d(160, eps=1e-05, momentum=0.1, affine=False, track_running_stats=True)
          (4): ReLU(inplace=True)
          (5): Conv2d(160, 160, kernel_size=(3, 3), stride=(1, 1), padding=(1, 1), groups=160, bias=False)
          (6): BatchNorm2d(160, eps=1e-05, momentum=0.1, affine=False, track_running_stats=True)
          (7): Conv2d(160, 160, kernel_size=(1, 1), stride=(1, 1), bias=False)
          (8): BatchNorm2d(160, eps=1e-05, momentum=0.1, affine=False, track_running_stats=True)
          (9): ReLU(inplace=True)
          (10): Conv2d(160, 160, kernel_size=(3, 3), stride=(1, 1), padding=(1, 1), groups=160, bias=False)
          (11): BatchNorm2d(160, eps=1e-05, momentum=0.1, affine=False, track_running_stats=True)
          (12): Conv2d(160, 160, kernel_size=(1, 1), stride=(1, 1), bias=False)
          (13): BatchNorm2d(160, eps=1e-05, momentum=0.1, affine=False, track_running_stats=True)
          (14): ReLU(inplace=True)
        )
      )
    )
    (12): ModuleList(
      (0): Choice_Block(
        (cb_main): Sequential(
          (0): Conv2d(160, 160, kernel_size=(1, 1), stride=(1, 1), bias=False)
          (1): BatchNorm2d(160, eps=1e-05, momentum=0.1, affine=False, track_running_stats=True)
          (2): ReLU(inplace=True)
          (3): Conv2d(160, 160, kernel_size=(3, 3), stride=(1, 1), padding=(1, 1), groups=160, bias=False)
          (4): BatchNorm2d(160, eps=1e-05, momentum=0.1, affine=False, track_running_stats=True)
          (5): Conv2d(160, 160, kernel_size=(1, 1), stride=(1, 1), bias=False)
          (6): BatchNorm2d(160, eps=1e-05, momentum=0.1, affine=False, track_running_stats=True)
          (7): ReLU(inplace=True)
        )
      )
      (1): Choice_Block(
        (cb_main): Sequential(
          (0): Conv2d(160, 160, kernel_size=(1, 1), stride=(1, 1), bias=False)
          (1): BatchNorm2d(160, eps=1e-05, momentum=0.1, affine=False, track_running_stats=True)
          (2): ReLU(inplace=True)
          (3): Conv2d(160, 160, kernel_size=(5, 5), stride=(1, 1), padding=(2, 2), groups=160, bias=False)
          (4): BatchNorm2d(160, eps=1e-05, momentum=0.1, affine=False, track_running_stats=True)
          (5): Conv2d(160, 160, kernel_size=(1, 1), stride=(1, 1), bias=False)
          (6): BatchNorm2d(160, eps=1e-05, momentum=0.1, affine=False, track_running_stats=True)
          (7): ReLU(inplace=True)
        )
      )
      (2): Choice_Block(
        (cb_main): Sequential(
          (0): Conv2d(160, 160, kernel_size=(1, 1), stride=(1, 1), bias=False)
          (1): BatchNorm2d(160, eps=1e-05, momentum=0.1, affine=False, track_running_stats=True)
          (2): ReLU(inplace=True)
          (3): Conv2d(160, 160, kernel_size=(7, 7), stride=(1, 1), padding=(3, 3), groups=160, bias=False)
          (4): BatchNorm2d(160, eps=1e-05, momentum=0.1, affine=False, track_running_stats=True)
          (5): Conv2d(160, 160, kernel_size=(1, 1), stride=(1, 1), bias=False)
          (6): BatchNorm2d(160, eps=1e-05, momentum=0.1, affine=False, track_running_stats=True)
          (7): ReLU(inplace=True)
        )
      )
      (3): Choice_Block_x(
        (cb_main): Sequential(
          (0): Conv2d(160, 160, kernel_size=(3, 3), stride=(1, 1), padding=(1, 1), groups=160, bias=False)
          (1): BatchNorm2d(160, eps=1e-05, momentum=0.1, affine=False, track_running_stats=True)
          (2): Conv2d(160, 160, kernel_size=(1, 1), stride=(1, 1), bias=False)
          (3): BatchNorm2d(160, eps=1e-05, momentum=0.1, affine=False, track_running_stats=True)
          (4): ReLU(inplace=True)
          (5): Conv2d(160, 160, kernel_size=(3, 3), stride=(1, 1), padding=(1, 1), groups=160, bias=False)
          (6): BatchNorm2d(160, eps=1e-05, momentum=0.1, affine=False, track_running_stats=True)
          (7): Conv2d(160, 160, kernel_size=(1, 1), stride=(1, 1), bias=False)
          (8): BatchNorm2d(160, eps=1e-05, momentum=0.1, affine=False, track_running_stats=True)
          (9): ReLU(inplace=True)
          (10): Conv2d(160, 160, kernel_size=(3, 3), stride=(1, 1), padding=(1, 1), groups=160, bias=False)
          (11): BatchNorm2d(160, eps=1e-05, momentum=0.1, affine=False, track_running_stats=True)
          (12): Conv2d(160, 160, kernel_size=(1, 1), stride=(1, 1), bias=False)
          (13): BatchNorm2d(160, eps=1e-05, momentum=0.1, affine=False, track_running_stats=True)
          (14): ReLU(inplace=True)
        )
      )
    )
    (13): ModuleList(
      (0): Choice_Block(
        (cb_main): Sequential(
          (0): Conv2d(160, 160, kernel_size=(1, 1), stride=(1, 1), bias=False)
          (1): BatchNorm2d(160, eps=1e-05, momentum=0.1, affine=False, track_running_stats=True)
          (2): ReLU(inplace=True)
          (3): Conv2d(160, 160, kernel_size=(3, 3), stride=(1, 1), padding=(1, 1), groups=160, bias=False)
          (4): BatchNorm2d(160, eps=1e-05, momentum=0.1, affine=False, track_running_stats=True)
          (5): Conv2d(160, 160, kernel_size=(1, 1), stride=(1, 1), bias=False)
          (6): BatchNorm2d(160, eps=1e-05, momentum=0.1, affine=False, track_running_stats=True)
          (7): ReLU(inplace=True)
        )
      )
      (1): Choice_Block(
        (cb_main): Sequential(
          (0): Conv2d(160, 160, kernel_size=(1, 1), stride=(1, 1), bias=False)
          (1): BatchNorm2d(160, eps=1e-05, momentum=0.1, affine=False, track_running_stats=True)
          (2): ReLU(inplace=True)
          (3): Conv2d(160, 160, kernel_size=(5, 5), stride=(1, 1), padding=(2, 2), groups=160, bias=False)
          (4): BatchNorm2d(160, eps=1e-05, momentum=0.1, affine=False, track_running_stats=True)
          (5): Conv2d(160, 160, kernel_size=(1, 1), stride=(1, 1), bias=False)
          (6): BatchNorm2d(160, eps=1e-05, momentum=0.1, affine=False, track_running_stats=True)
          (7): ReLU(inplace=True)
        )
      )
      (2): Choice_Block(
        (cb_main): Sequential(
          (0): Conv2d(160, 160, kernel_size=(1, 1), stride=(1, 1), bias=False)
          (1): BatchNorm2d(160, eps=1e-05, momentum=0.1, affine=False, track_running_stats=True)
          (2): ReLU(inplace=True)
          (3): Conv2d(160, 160, kernel_size=(7, 7), stride=(1, 1), padding=(3, 3), groups=160, bias=False)
          (4): BatchNorm2d(160, eps=1e-05, momentum=0.1, affine=False, track_running_stats=True)
          (5): Conv2d(160, 160, kernel_size=(1, 1), stride=(1, 1), bias=False)
          (6): BatchNorm2d(160, eps=1e-05, momentum=0.1, affine=False, track_running_stats=True)
          (7): ReLU(inplace=True)
        )
      )
      (3): Choice_Block_x(
        (cb_main): Sequential(
          (0): Conv2d(160, 160, kernel_size=(3, 3), stride=(1, 1), padding=(1, 1), groups=160, bias=False)
          (1): BatchNorm2d(160, eps=1e-05, momentum=0.1, affine=False, track_running_stats=True)
          (2): Conv2d(160, 160, kernel_size=(1, 1), stride=(1, 1), bias=False)
          (3): BatchNorm2d(160, eps=1e-05, momentum=0.1, affine=False, track_running_stats=True)
          (4): ReLU(inplace=True)
          (5): Conv2d(160, 160, kernel_size=(3, 3), stride=(1, 1), padding=(1, 1), groups=160, bias=False)
          (6): BatchNorm2d(160, eps=1e-05, momentum=0.1, affine=False, track_running_stats=True)
          (7): Conv2d(160, 160, kernel_size=(1, 1), stride=(1, 1), bias=False)
          (8): BatchNorm2d(160, eps=1e-05, momentum=0.1, affine=False, track_running_stats=True)
          (9): ReLU(inplace=True)
          (10): Conv2d(160, 160, kernel_size=(3, 3), stride=(1, 1), padding=(1, 1), groups=160, bias=False)
          (11): BatchNorm2d(160, eps=1e-05, momentum=0.1, affine=False, track_running_stats=True)
          (12): Conv2d(160, 160, kernel_size=(1, 1), stride=(1, 1), bias=False)
          (13): BatchNorm2d(160, eps=1e-05, momentum=0.1, affine=False, track_running_stats=True)
          (14): ReLU(inplace=True)
        )
      )
    )
    (14): ModuleList(
      (0): Choice_Block(
        (cb_main): Sequential(
          (0): Conv2d(160, 160, kernel_size=(1, 1), stride=(1, 1), bias=False)
          (1): BatchNorm2d(160, eps=1e-05, momentum=0.1, affine=False, track_running_stats=True)
          (2): ReLU(inplace=True)
          (3): Conv2d(160, 160, kernel_size=(3, 3), stride=(1, 1), padding=(1, 1), groups=160, bias=False)
          (4): BatchNorm2d(160, eps=1e-05, momentum=0.1, affine=False, track_running_stats=True)
          (5): Conv2d(160, 160, kernel_size=(1, 1), stride=(1, 1), bias=False)
          (6): BatchNorm2d(160, eps=1e-05, momentum=0.1, affine=False, track_running_stats=True)
          (7): ReLU(inplace=True)
        )
      )
      (1): Choice_Block(
        (cb_main): Sequential(
          (0): Conv2d(160, 160, kernel_size=(1, 1), stride=(1, 1), bias=False)
          (1): BatchNorm2d(160, eps=1e-05, momentum=0.1, affine=False, track_running_stats=True)
          (2): ReLU(inplace=True)
          (3): Conv2d(160, 160, kernel_size=(5, 5), stride=(1, 1), padding=(2, 2), groups=160, bias=False)
          (4): BatchNorm2d(160, eps=1e-05, momentum=0.1, affine=False, track_running_stats=True)
          (5): Conv2d(160, 160, kernel_size=(1, 1), stride=(1, 1), bias=False)
          (6): BatchNorm2d(160, eps=1e-05, momentum=0.1, affine=False, track_running_stats=True)
          (7): ReLU(inplace=True)
        )
      )
      (2): Choice_Block(
        (cb_main): Sequential(
          (0): Conv2d(160, 160, kernel_size=(1, 1), stride=(1, 1), bias=False)
          (1): BatchNorm2d(160, eps=1e-05, momentum=0.1, affine=False, track_running_stats=True)
          (2): ReLU(inplace=True)
          (3): Conv2d(160, 160, kernel_size=(7, 7), stride=(1, 1), padding=(3, 3), groups=160, bias=False)
          (4): BatchNorm2d(160, eps=1e-05, momentum=0.1, affine=False, track_running_stats=True)
          (5): Conv2d(160, 160, kernel_size=(1, 1), stride=(1, 1), bias=False)
          (6): BatchNorm2d(160, eps=1e-05, momentum=0.1, affine=False, track_running_stats=True)
          (7): ReLU(inplace=True)
        )
      )
      (3): Choice_Block_x(
        (cb_main): Sequential(
          (0): Conv2d(160, 160, kernel_size=(3, 3), stride=(1, 1), padding=(1, 1), groups=160, bias=False)
          (1): BatchNorm2d(160, eps=1e-05, momentum=0.1, affine=False, track_running_stats=True)
          (2): Conv2d(160, 160, kernel_size=(1, 1), stride=(1, 1), bias=False)
          (3): BatchNorm2d(160, eps=1e-05, momentum=0.1, affine=False, track_running_stats=True)
          (4): ReLU(inplace=True)
          (5): Conv2d(160, 160, kernel_size=(3, 3), stride=(1, 1), padding=(1, 1), groups=160, bias=False)
          (6): BatchNorm2d(160, eps=1e-05, momentum=0.1, affine=False, track_running_stats=True)
          (7): Conv2d(160, 160, kernel_size=(1, 1), stride=(1, 1), bias=False)
          (8): BatchNorm2d(160, eps=1e-05, momentum=0.1, affine=False, track_running_stats=True)
          (9): ReLU(inplace=True)
          (10): Conv2d(160, 160, kernel_size=(3, 3), stride=(1, 1), padding=(1, 1), groups=160, bias=False)
          (11): BatchNorm2d(160, eps=1e-05, momentum=0.1, affine=False, track_running_stats=True)
          (12): Conv2d(160, 160, kernel_size=(1, 1), stride=(1, 1), bias=False)
          (13): BatchNorm2d(160, eps=1e-05, momentum=0.1, affine=False, track_running_stats=True)
          (14): ReLU(inplace=True)
        )
      )
    )
    (15): ModuleList(
      (0): Choice_Block(
        (cb_main): Sequential(
          (0): Conv2d(160, 160, kernel_size=(1, 1), stride=(1, 1), bias=False)
          (1): BatchNorm2d(160, eps=1e-05, momentum=0.1, affine=False, track_running_stats=True)
          (2): ReLU(inplace=True)
          (3): Conv2d(160, 160, kernel_size=(3, 3), stride=(1, 1), padding=(1, 1), groups=160, bias=False)
          (4): BatchNorm2d(160, eps=1e-05, momentum=0.1, affine=False, track_running_stats=True)
          (5): Conv2d(160, 160, kernel_size=(1, 1), stride=(1, 1), bias=False)
          (6): BatchNorm2d(160, eps=1e-05, momentum=0.1, affine=False, track_running_stats=True)
          (7): ReLU(inplace=True)
        )
      )
      (1): Choice_Block(
        (cb_main): Sequential(
          (0): Conv2d(160, 160, kernel_size=(1, 1), stride=(1, 1), bias=False)
          (1): BatchNorm2d(160, eps=1e-05, momentum=0.1, affine=False, track_running_stats=True)
          (2): ReLU(inplace=True)
          (3): Conv2d(160, 160, kernel_size=(5, 5), stride=(1, 1), padding=(2, 2), groups=160, bias=False)
          (4): BatchNorm2d(160, eps=1e-05, momentum=0.1, affine=False, track_running_stats=True)
          (5): Conv2d(160, 160, kernel_size=(1, 1), stride=(1, 1), bias=False)
          (6): BatchNorm2d(160, eps=1e-05, momentum=0.1, affine=False, track_running_stats=True)
          (7): ReLU(inplace=True)
        )
      )
      (2): Choice_Block(
        (cb_main): Sequential(
          (0): Conv2d(160, 160, kernel_size=(1, 1), stride=(1, 1), bias=False)
          (1): BatchNorm2d(160, eps=1e-05, momentum=0.1, affine=False, track_running_stats=True)
          (2): ReLU(inplace=True)
          (3): Conv2d(160, 160, kernel_size=(7, 7), stride=(1, 1), padding=(3, 3), groups=160, bias=False)
          (4): BatchNorm2d(160, eps=1e-05, momentum=0.1, affine=False, track_running_stats=True)
          (5): Conv2d(160, 160, kernel_size=(1, 1), stride=(1, 1), bias=False)
          (6): BatchNorm2d(160, eps=1e-05, momentum=0.1, affine=False, track_running_stats=True)
          (7): ReLU(inplace=True)
        )
      )
      (3): Choice_Block_x(
        (cb_main): Sequential(
          (0): Conv2d(160, 160, kernel_size=(3, 3), stride=(1, 1), padding=(1, 1), groups=160, bias=False)
          (1): BatchNorm2d(160, eps=1e-05, momentum=0.1, affine=False, track_running_stats=True)
          (2): Conv2d(160, 160, kernel_size=(1, 1), stride=(1, 1), bias=False)
          (3): BatchNorm2d(160, eps=1e-05, momentum=0.1, affine=False, track_running_stats=True)
          (4): ReLU(inplace=True)
          (5): Conv2d(160, 160, kernel_size=(3, 3), stride=(1, 1), padding=(1, 1), groups=160, bias=False)
          (6): BatchNorm2d(160, eps=1e-05, momentum=0.1, affine=False, track_running_stats=True)
          (7): Conv2d(160, 160, kernel_size=(1, 1), stride=(1, 1), bias=False)
          (8): BatchNorm2d(160, eps=1e-05, momentum=0.1, affine=False, track_running_stats=True)
          (9): ReLU(inplace=True)
          (10): Conv2d(160, 160, kernel_size=(3, 3), stride=(1, 1), padding=(1, 1), groups=160, bias=False)
          (11): BatchNorm2d(160, eps=1e-05, momentum=0.1, affine=False, track_running_stats=True)
          (12): Conv2d(160, 160, kernel_size=(1, 1), stride=(1, 1), bias=False)
          (13): BatchNorm2d(160, eps=1e-05, momentum=0.1, affine=False, track_running_stats=True)
          (14): ReLU(inplace=True)
        )
      )
    )
    (16): ModuleList(
      (0): Choice_Block(
        (cb_main): Sequential(
          (0): Conv2d(160, 320, kernel_size=(1, 1), stride=(1, 1), bias=False)
          (1): BatchNorm2d(320, eps=1e-05, momentum=0.1, affine=False, track_running_stats=True)
          (2): ReLU(inplace=True)
          (3): Conv2d(320, 320, kernel_size=(3, 3), stride=(1, 1), padding=(1, 1), groups=320, bias=False)
          (4): BatchNorm2d(320, eps=1e-05, momentum=0.1, affine=False, track_running_stats=True)
          (5): Conv2d(320, 480, kernel_size=(1, 1), stride=(1, 1), bias=False)
          (6): BatchNorm2d(480, eps=1e-05, momentum=0.1, affine=False, track_running_stats=True)
          (7): ReLU(inplace=True)
        )
      )
      (1): Choice_Block(
        (cb_main): Sequential(
          (0): Conv2d(160, 320, kernel_size=(1, 1), stride=(1, 1), bias=False)
          (1): BatchNorm2d(320, eps=1e-05, momentum=0.1, affine=False, track_running_stats=True)
          (2): ReLU(inplace=True)
          (3): Conv2d(320, 320, kernel_size=(5, 5), stride=(1, 1), padding=(2, 2), groups=320, bias=False)
          (4): BatchNorm2d(320, eps=1e-05, momentum=0.1, affine=False, track_running_stats=True)
          (5): Conv2d(320, 480, kernel_size=(1, 1), stride=(1, 1), bias=False)
          (6): BatchNorm2d(480, eps=1e-05, momentum=0.1, affine=False, track_running_stats=True)
          (7): ReLU(inplace=True)
        )
      )
      (2): Choice_Block(
        (cb_main): Sequential(
          (0): Conv2d(160, 320, kernel_size=(1, 1), stride=(1, 1), bias=False)
          (1): BatchNorm2d(320, eps=1e-05, momentum=0.1, affine=False, track_running_stats=True)
          (2): ReLU(inplace=True)
          (3): Conv2d(320, 320, kernel_size=(7, 7), stride=(1, 1), padding=(3, 3), groups=320, bias=False)
          (4): BatchNorm2d(320, eps=1e-05, momentum=0.1, affine=False, track_running_stats=True)
          (5): Conv2d(320, 480, kernel_size=(1, 1), stride=(1, 1), bias=False)
          (6): BatchNorm2d(480, eps=1e-05, momentum=0.1, affine=False, track_running_stats=True)
          (7): ReLU(inplace=True)
        )
      )
      (3): Choice_Block_x(
        (cb_main): Sequential(
          (0): Conv2d(160, 160, kernel_size=(3, 3), stride=(1, 1), padding=(1, 1), groups=160, bias=False)
          (1): BatchNorm2d(160, eps=1e-05, momentum=0.1, affine=False, track_running_stats=True)
          (2): Conv2d(160, 320, kernel_size=(1, 1), stride=(1, 1), bias=False)
          (3): BatchNorm2d(320, eps=1e-05, momentum=0.1, affine=False, track_running_stats=True)
          (4): ReLU(inplace=True)
          (5): Conv2d(320, 320, kernel_size=(3, 3), stride=(1, 1), padding=(1, 1), groups=320, bias=False)
          (6): BatchNorm2d(320, eps=1e-05, momentum=0.1, affine=False, track_running_stats=True)
          (7): Conv2d(320, 320, kernel_size=(1, 1), stride=(1, 1), bias=False)
          (8): BatchNorm2d(320, eps=1e-05, momentum=0.1, affine=False, track_running_stats=True)
          (9): ReLU(inplace=True)
          (10): Conv2d(320, 320, kernel_size=(3, 3), stride=(1, 1), padding=(1, 1), groups=320, bias=False)
          (11): BatchNorm2d(320, eps=1e-05, momentum=0.1, affine=False, track_running_stats=True)
          (12): Conv2d(320, 480, kernel_size=(1, 1), stride=(1, 1), bias=False)
          (13): BatchNorm2d(480, eps=1e-05, momentum=0.1, affine=False, track_running_stats=True)
          (14): ReLU(inplace=True)
        )
      )
    )
    (17): ModuleList(
      (0): Choice_Block(
        (cb_main): Sequential(
          (0): Conv2d(320, 320, kernel_size=(1, 1), stride=(1, 1), bias=False)
          (1): BatchNorm2d(320, eps=1e-05, momentum=0.1, affine=False, track_running_stats=True)
          (2): ReLU(inplace=True)
          (3): Conv2d(320, 320, kernel_size=(3, 3), stride=(1, 1), padding=(1, 1), groups=320, bias=False)
          (4): BatchNorm2d(320, eps=1e-05, momentum=0.1, affine=False, track_running_stats=True)
          (5): Conv2d(320, 320, kernel_size=(1, 1), stride=(1, 1), bias=False)
          (6): BatchNorm2d(320, eps=1e-05, momentum=0.1, affine=False, track_running_stats=True)
          (7): ReLU(inplace=True)
        )
      )
      (1): Choice_Block(
        (cb_main): Sequential(
          (0): Conv2d(320, 320, kernel_size=(1, 1), stride=(1, 1), bias=False)
          (1): BatchNorm2d(320, eps=1e-05, momentum=0.1, affine=False, track_running_stats=True)
          (2): ReLU(inplace=True)
          (3): Conv2d(320, 320, kernel_size=(5, 5), stride=(1, 1), padding=(2, 2), groups=320, bias=False)
          (4): BatchNorm2d(320, eps=1e-05, momentum=0.1, affine=False, track_running_stats=True)
          (5): Conv2d(320, 320, kernel_size=(1, 1), stride=(1, 1), bias=False)
          (6): BatchNorm2d(320, eps=1e-05, momentum=0.1, affine=False, track_running_stats=True)
          (7): ReLU(inplace=True)
        )
      )
      (2): Choice_Block(
        (cb_main): Sequential(
          (0): Conv2d(320, 320, kernel_size=(1, 1), stride=(1, 1), bias=False)
          (1): BatchNorm2d(320, eps=1e-05, momentum=0.1, affine=False, track_running_stats=True)
          (2): ReLU(inplace=True)
          (3): Conv2d(320, 320, kernel_size=(7, 7), stride=(1, 1), padding=(3, 3), groups=320, bias=False)
          (4): BatchNorm2d(320, eps=1e-05, momentum=0.1, affine=False, track_running_stats=True)
          (5): Conv2d(320, 320, kernel_size=(1, 1), stride=(1, 1), bias=False)
          (6): BatchNorm2d(320, eps=1e-05, momentum=0.1, affine=False, track_running_stats=True)
          (7): ReLU(inplace=True)
        )
      )
      (3): Choice_Block_x(
        (cb_main): Sequential(
          (0): Conv2d(320, 320, kernel_size=(3, 3), stride=(1, 1), padding=(1, 1), groups=320, bias=False)
          (1): BatchNorm2d(320, eps=1e-05, momentum=0.1, affine=False, track_running_stats=True)
          (2): Conv2d(320, 320, kernel_size=(1, 1), stride=(1, 1), bias=False)
          (3): BatchNorm2d(320, eps=1e-05, momentum=0.1, affine=False, track_running_stats=True)
          (4): ReLU(inplace=True)
          (5): Conv2d(320, 320, kernel_size=(3, 3), stride=(1, 1), padding=(1, 1), groups=320, bias=False)
          (6): BatchNorm2d(320, eps=1e-05, momentum=0.1, affine=False, track_running_stats=True)
          (7): Conv2d(320, 320, kernel_size=(1, 1), stride=(1, 1), bias=False)
          (8): BatchNorm2d(320, eps=1e-05, momentum=0.1, affine=False, track_running_stats=True)
          (9): ReLU(inplace=True)
          (10): Conv2d(320, 320, kernel_size=(3, 3), stride=(1, 1), padding=(1, 1), groups=320, bias=False)
          (11): BatchNorm2d(320, eps=1e-05, momentum=0.1, affine=False, track_running_stats=True)
          (12): Conv2d(320, 320, kernel_size=(1, 1), stride=(1, 1), bias=False)
          (13): BatchNorm2d(320, eps=1e-05, momentum=0.1, affine=False, track_running_stats=True)
          (14): ReLU(inplace=True)
        )
      )
    )
    (18): ModuleList(
      (0): Choice_Block(
        (cb_main): Sequential(
          (0): Conv2d(320, 320, kernel_size=(1, 1), stride=(1, 1), bias=False)
          (1): BatchNorm2d(320, eps=1e-05, momentum=0.1, affine=False, track_running_stats=True)
          (2): ReLU(inplace=True)
          (3): Conv2d(320, 320, kernel_size=(3, 3), stride=(1, 1), padding=(1, 1), groups=320, bias=False)
          (4): BatchNorm2d(320, eps=1e-05, momentum=0.1, affine=False, track_running_stats=True)
          (5): Conv2d(320, 320, kernel_size=(1, 1), stride=(1, 1), bias=False)
          (6): BatchNorm2d(320, eps=1e-05, momentum=0.1, affine=False, track_running_stats=True)
          (7): ReLU(inplace=True)
        )
      )
      (1): Choice_Block(
        (cb_main): Sequential(
          (0): Conv2d(320, 320, kernel_size=(1, 1), stride=(1, 1), bias=False)
          (1): BatchNorm2d(320, eps=1e-05, momentum=0.1, affine=False, track_running_stats=True)
          (2): ReLU(inplace=True)
          (3): Conv2d(320, 320, kernel_size=(5, 5), stride=(1, 1), padding=(2, 2), groups=320, bias=False)
          (4): BatchNorm2d(320, eps=1e-05, momentum=0.1, affine=False, track_running_stats=True)
          (5): Conv2d(320, 320, kernel_size=(1, 1), stride=(1, 1), bias=False)
          (6): BatchNorm2d(320, eps=1e-05, momentum=0.1, affine=False, track_running_stats=True)
          (7): ReLU(inplace=True)
        )
      )
      (2): Choice_Block(
        (cb_main): Sequential(
          (0): Conv2d(320, 320, kernel_size=(1, 1), stride=(1, 1), bias=False)
          (1): BatchNorm2d(320, eps=1e-05, momentum=0.1, affine=False, track_running_stats=True)
          (2): ReLU(inplace=True)
          (3): Conv2d(320, 320, kernel_size=(7, 7), stride=(1, 1), padding=(3, 3), groups=320, bias=False)
          (4): BatchNorm2d(320, eps=1e-05, momentum=0.1, affine=False, track_running_stats=True)
          (5): Conv2d(320, 320, kernel_size=(1, 1), stride=(1, 1), bias=False)
          (6): BatchNorm2d(320, eps=1e-05, momentum=0.1, affine=False, track_running_stats=True)
          (7): ReLU(inplace=True)
        )
      )
      (3): Choice_Block_x(
        (cb_main): Sequential(
          (0): Conv2d(320, 320, kernel_size=(3, 3), stride=(1, 1), padding=(1, 1), groups=320, bias=False)
          (1): BatchNorm2d(320, eps=1e-05, momentum=0.1, affine=False, track_running_stats=True)
          (2): Conv2d(320, 320, kernel_size=(1, 1), stride=(1, 1), bias=False)
          (3): BatchNorm2d(320, eps=1e-05, momentum=0.1, affine=False, track_running_stats=True)
          (4): ReLU(inplace=True)
          (5): Conv2d(320, 320, kernel_size=(3, 3), stride=(1, 1), padding=(1, 1), groups=320, bias=False)
          (6): BatchNorm2d(320, eps=1e-05, momentum=0.1, affine=False, track_running_stats=True)
          (7): Conv2d(320, 320, kernel_size=(1, 1), stride=(1, 1), bias=False)
          (8): BatchNorm2d(320, eps=1e-05, momentum=0.1, affine=False, track_running_stats=True)
          (9): ReLU(inplace=True)
          (10): Conv2d(320, 320, kernel_size=(3, 3), stride=(1, 1), padding=(1, 1), groups=320, bias=False)
          (11): BatchNorm2d(320, eps=1e-05, momentum=0.1, affine=False, track_running_stats=True)
          (12): Conv2d(320, 320, kernel_size=(1, 1), stride=(1, 1), bias=False)
          (13): BatchNorm2d(320, eps=1e-05, momentum=0.1, affine=False, track_running_stats=True)
          (14): ReLU(inplace=True)
        )
      )
    )
    (19): ModuleList(
      (0): Choice_Block(
        (cb_main): Sequential(
          (0): Conv2d(320, 320, kernel_size=(1, 1), stride=(1, 1), bias=False)
          (1): BatchNorm2d(320, eps=1e-05, momentum=0.1, affine=False, track_running_stats=True)
          (2): ReLU(inplace=True)
          (3): Conv2d(320, 320, kernel_size=(3, 3), stride=(1, 1), padding=(1, 1), groups=320, bias=False)
          (4): BatchNorm2d(320, eps=1e-05, momentum=0.1, affine=False, track_running_stats=True)
          (5): Conv2d(320, 320, kernel_size=(1, 1), stride=(1, 1), bias=False)
          (6): BatchNorm2d(320, eps=1e-05, momentum=0.1, affine=False, track_running_stats=True)
          (7): ReLU(inplace=True)
        )
      )
      (1): Choice_Block(
        (cb_main): Sequential(
          (0): Conv2d(320, 320, kernel_size=(1, 1), stride=(1, 1), bias=False)
          (1): BatchNorm2d(320, eps=1e-05, momentum=0.1, affine=False, track_running_stats=True)
          (2): ReLU(inplace=True)
          (3): Conv2d(320, 320, kernel_size=(5, 5), stride=(1, 1), padding=(2, 2), groups=320, bias=False)
          (4): BatchNorm2d(320, eps=1e-05, momentum=0.1, affine=False, track_running_stats=True)
          (5): Conv2d(320, 320, kernel_size=(1, 1), stride=(1, 1), bias=False)
          (6): BatchNorm2d(320, eps=1e-05, momentum=0.1, affine=False, track_running_stats=True)
          (7): ReLU(inplace=True)
        )
      )
      (2): Choice_Block(
        (cb_main): Sequential(
          (0): Conv2d(320, 320, kernel_size=(1, 1), stride=(1, 1), bias=False)
          (1): BatchNorm2d(320, eps=1e-05, momentum=0.1, affine=False, track_running_stats=True)
          (2): ReLU(inplace=True)
          (3): Conv2d(320, 320, kernel_size=(7, 7), stride=(1, 1), padding=(3, 3), groups=320, bias=False)
          (4): BatchNorm2d(320, eps=1e-05, momentum=0.1, affine=False, track_running_stats=True)
          (5): Conv2d(320, 320, kernel_size=(1, 1), stride=(1, 1), bias=False)
          (6): BatchNorm2d(320, eps=1e-05, momentum=0.1, affine=False, track_running_stats=True)
          (7): ReLU(inplace=True)
        )
      )
      (3): Choice_Block_x(
        (cb_main): Sequential(
          (0): Conv2d(320, 320, kernel_size=(3, 3), stride=(1, 1), padding=(1, 1), groups=320, bias=False)
          (1): BatchNorm2d(320, eps=1e-05, momentum=0.1, affine=False, track_running_stats=True)
          (2): Conv2d(320, 320, kernel_size=(1, 1), stride=(1, 1), bias=False)
          (3): BatchNorm2d(320, eps=1e-05, momentum=0.1, affine=False, track_running_stats=True)
          (4): ReLU(inplace=True)
          (5): Conv2d(320, 320, kernel_size=(3, 3), stride=(1, 1), padding=(1, 1), groups=320, bias=False)
          (6): BatchNorm2d(320, eps=1e-05, momentum=0.1, affine=False, track_running_stats=True)
          (7): Conv2d(320, 320, kernel_size=(1, 1), stride=(1, 1), bias=False)
          (8): BatchNorm2d(320, eps=1e-05, momentum=0.1, affine=False, track_running_stats=True)
          (9): ReLU(inplace=True)
          (10): Conv2d(320, 320, kernel_size=(3, 3), stride=(1, 1), padding=(1, 1), groups=320, bias=False)
          (11): BatchNorm2d(320, eps=1e-05, momentum=0.1, affine=False, track_running_stats=True)
          (12): Conv2d(320, 320, kernel_size=(1, 1), stride=(1, 1), bias=False)
          (13): BatchNorm2d(320, eps=1e-05, momentum=0.1, affine=False, track_running_stats=True)
          (14): ReLU(inplace=True)
        )
      )
    )
  )
  (last_conv): Sequential(
    (0): Conv2d(640, 1024, kernel_size=(1, 1), stride=(1, 1), bias=False)
    (1): BatchNorm2d(1024, eps=1e-05, momentum=0.1, affine=False, track_running_stats=True)
    (2): ReLU6(inplace=True)
  )
  (global_pooling): AdaptiveAvgPool2d(output_size=1)
  (classifier): Linear(in_features=1024, out_features=10, bias=False)
)


12/17 01:17:17 AM [Supernet Training] lr: 0.02500 epoch: 001/600, step: 001/521, train_loss: 2.307(2.307), train_acc: 3.125(3.125)
12/17 01:17:24 AM [Supernet Training] lr: 0.02500 epoch: 001/600, step: 101/521, train_loss: 2.234(2.365), train_acc: 15.625(11.489)
12/17 01:17:31 AM [Supernet Training] lr: 0.02500 epoch: 001/600, step: 201/521, train_loss: 2.313(2.318), train_acc: 12.500(12.246)
…
